HW1/weight.npy (npy, 1432 bytes, 1 tensors)

array f8 [163, 1]
000000 6c d7 f9 39 c0 5f 35 40 f9 b5 87 44 a3 88 ca 3f
       21.374026893135508 0.20729485365102088
000010 b6 f8 6c a5 51 88 e4 bf d8 1a b6 25 7e df f0 3f
       -0.6416404944391363 1.0545636628245827
000020 73 82 89 be 64 e9 f5 bf 42 c2 32 ce f9 c7 e8 bf
       -1.369480842862825 -0.7744111087141123
000030 84 b7 65 4a 56 bc fc 3f ac 7b 1d b9 88 6a e7 bf
       1.7959807306428681 -0.731754647782386
000040 30 6b fa 88 d4 f6 fa bf a5 69 bb e1 eb 68 00 40
       -1.6852612829886304 2.051231158763772
000050 8d 71 9d 54 af 1d d5 bf c9 51 fe 18 16 ac c1 3f
       -0.32993682158646537 0.13806415768034544
000060 3f 0f 61 ae 4e 14 b2 3f 4d f1 73 01 be 3d bb 3f
       0.07062236554434963 0.10641086135359963
000070 e7 53 cc 61 db 16 a3 bf b6 94 87 a0 bd dc 94 bf
       -0.03728375977349412 -0.02037330906195641
000080 dd a2 ab c7 56 dd c6 bf af 9a d4 5f cc c8 c4 3f
       -0.17862972974332694 0.1623778789446155
000090 7a e9 15 3f 78 b8 e0 3f 1c 05 fe 7e 8f 27 a9 3f
       0.5225182754650597 0.049129947902665644
0000a0 24 8b ea 30 4d d7 98 bf b9 7b 37 18 1e f6 b0 3f
       -0.024258810148818047 0.06625545588711547
0000b0 bb 95 d8 01 06 53 c4 bf dd eb 61 1e 62 53 c3 3f
       -0.1587836750997392 0.15098215564270748
0000c0 81 0c bd 70 98 b7 91 bf ab 9b 7b ee 21 c8 c4 bf
       -0.017301923638353593 -0.16235756058378334
0000d0 94 af 44 b3 ab 83 b3 3f ab d6 94 b7 26 d9 d9 3f
       0.07622788550059872 0.4038788597857585
0000e0 bb 38 d7 ba e6 ea d3 bf 15 62 16 57 37 db d7 3f
       -0.31121223684466387 0.37275489334709394
0000f0 57 21 4f a3 d7 44 d2 bf aa d3 14 35 6e c4 d4 3f
       -0.2854518027129606 0.32448916610456513
000100 f9 fd 3b bd fe a7 d2 3f d8 dc ea 17 d1 9c e0 bf
       0.2915036056510583 -0.5191426722657537
000110 ad 99 d8 84 1d fa b7 3f 94 fa 93 d4 8c 35 c8 3f
       0.09366020673096527 0.18913421993052693
000120 47 be f9 3d a9 61 b5 3f f0 c5 36 06 45 a5 a2 bf
       0.08352144015383899 -0.036417157181300897
000130 0e 8e 97 10 df e3 c1 bf 30 4c 3b a3 14 e6 cb 3f
       -0.13976658163220218 0.21795900316519257
000140 a5 91 75 ff cb f4 d5 bf 50 2d e8 f7 d2 50 a6 bf
       -0.3430662150115274 -0.043585388910367784
000150 b9 c9 ba a5 c9 87 d4 bf f0 79 55 da 8b 27 88 bf
       -0.32078782257590494 -0.011794178581735232
000160 34 51 2e 0e 24 2a c3 3f 2e 81 a4 f2 d5 fd e1 bf
       0.14972353641918235 -0.5622358073342519
000170 e9 75 b2 f0 59 e0 a6 bf d5 85 5e 45 03 bd e8 bf
       -0.04468041480252422 -0.7730728487842337
000180 32 33 e7 69 95 0e d3 bf 58 2f 10 34 a2 80 ed bf
       -0.2977651151857571 -0.9219523445949376
000190 63 f5 30 6f 55 20 d0 bf 52 70 8c 0a 87 ed da bf
       -0.25197349413413955 -0.42074752836356766
0001a0 49 88 79 c9 b7 6a db bf 97 e9 57 d3 91 6b ec bf
       -0.42838854480044525 -0.8881310584832133
0001b0 e1 ca c8 5d 7d 83 e0 3f f1 f9 f1 06 1d 33 d9 3f
       0.516050990269232 0.39374471357578417
0001c0 89 89 65 7f 04 ec d2 3f 8a 6e 98 6b 9a 38 cf 3f
       0.29565536919667373 0.24391489270862038
0001d0 67 40 50 b8 c1 85 ed 3f a4 9d 5e cf fd 43 c9 3f
       0.9225777244446477 0.19738743424862293
0001e0 28 41 36 7b 25 9c e1 3f 9a 8e 59 be 6f a6 c4 3f
       0.5503108412249604 0.16132923883843803
0001f0 55 5e 84 fb e9 66 d6 3f 18 16 4d ce a3 c9 f7 3f
       0.35003137170995063 1.486728483070129
000200 c7 1e 9f 18 88 89 92 bf 99 6d 20 71 c9 39 d4 3f
       -0.0181027665164766 0.31602703139807314
000210 27 be 4e 59 de 5e d1 bf 81 52 38 f4 e4 3b d0 bf
       -0.27141531678623426 -0.2536556611023926
000220 93 8f 53 4d c3 f5 b4 bf 95 f5 a3 07 cd ee e0 bf
       -0.0818750442300014 -0.5291505002239086
000230 24 e8 41 8e 91 db db bf 2c 33 32 56 01 71 ce bf
       -0.43527640240029286 -0.23782364567559833
000240 9a 57 27 32 3f 56 fd 3f 69 a6 47 bd 7a fa cd 3f
       1.8335563620689528 0.23420652620488916
000250 a3 be 7e fc 0b ff cb 3f dd 17 e4 a9 30 87 e9 bf
       0.21872091130125168 -0.7977526968177205
000260 d6 62 97 03 ff 6d f2 3f b5 9c 70 73 9c 93 d0 bf
       1.1518545284545119 -0.2590094687788665
000270 f4 e8 a6 7e 39 18 f0 bf a4 10 4c 3f 53 bb f0 3f
       -1.0059142062514725 1.045733687643442
000280 9a 01 ec 01 8c 6d ba bf cd c7 6b f3 8b 17 ee 3f
       -0.10323405310555814 0.9403743509594676
000290 2b 22 0d fd 13 83 e3 bf f2 d3 96 3f 4f 41 c8 bf
       -0.6097507421882872 -0.18949308972301498
0002a0 d6 7c d6 c4 84 a2 0c 40 25 19 bc 89 b4 b2 0f c0
       3.57935479907574 -3.9622584114578268
0002b0 f9 70 cd e5 da 61 d4 bf bc 9a 30 98 3b 56 20 40
       -0.3184725994267548 8.168423419888647
0002c0 13 79 09 d4 4a 86 22 c0 8b db 99 9a 37 ec da 3f
       -9.262289644390455 0.4206675538802577
0002d0 ff 6b 13 62 0e a9 2f 40 a3 f5 52 52 cd 3f b4 3f
       15.830187859412034 0.07909854183068048
0002e0 d2 c3 d3 98 e8 e6 98 bf 0c 2d 38 98 0e 78 b7 bf
       -0.02431834633620495 -0.09167567459387643
0002f0 a1 ea fb 22 8a e6 95 3f ff 17 6f 32 23 6b bd bf
       0.021387251267678157 -0.11491603833482598
000300 7d 64 35 5f 0c e7 ba 3f 31 b0 c2 b4 05 13 a3 3f
       0.10508801769664618 0.03725450355099758
000310 0a b2 af 4c cd 8f b5 bf 2c ab 54 8b 3e 3d c4 bf
       -0.08422549364303947 -0.15811902812250744
000320 91 e6 7a 77 73 27 cb bf 7d 8f c4 6a 0d c7 db 3f
       -0.2121414502524215 0.43402419497055417
000330 5f 65 71 13 10 d4 b4 3f e2 84 cc a6 27 c8 d3 bf
       0.08136082148248168 -0.3090914849181684
000340 81 67 f6 c2 cf 4e f6 bf 27 90 db 89 85 5a fe 3f
       -1.3942411056254687 1.8971000084939165
000350 11 89 11 52 30 22 fb bf 4c 26 63 7a d5 7e c5 3f
       -1.6958468633461659 0.16793316341345343
000360 28 51 82 c7 28 94 e4 3f 22 30 6c ea 5c 75 e0 bf
       0.6430858513508939 -0.514326532227191
000370 91 79 04 64 75 84 e3 3f 97 84 40 76 d7 68 c1 bf
       0.6099192574945836 -0.13601201318764275
000380 af 5d 7e 75 45 34 b7 bf 5b 85 63 10 e2 b8 98 bf
       -0.09064134710785397 -0.02414277291325582
000390 c2 d1 41 10 54 b3 ba 3f 17 18 e5 53 af 4a cb bf
       0.1042988338175013 -0.21321670147352798
0003a0 a1 fa 12 bc 9e c5 d0 3f bc 3f 84 67 7e f3 d0 3f
       0.26206177107443734 0.2648616801170609
0003b0 4f 66 73 67 57 36 d6 3f 5a 64 55 b1 1a dd d2 bf
       0.3470667371999285 -0.2947451335690566
0003c0 52 ea 06 fe f7 7f c5 3f 5f de df 46 97 0d dd bf
       0.1679677954069399 -0.4539545242437039
0003d0 06 10 d4 08 e9 7b a5 bf b4 f9 5f 6e 67 47 d6 3f
       -0.04196098549621756 0.34810815600203715
0003e0 b6 2a ba 24 3b f8 b0 3f 5b 42 7f 76 db ed d6 bf
       0.06628770491276267 -0.3582676560591033
0003f0 84 50 bf 81 a9 c3 c4 bf d2 23 cc 19 19 3d a6 bf
       -0.16222113452261422 -0.04343489112768108
000400 17 fa f8 20 18 18 d2 3f c2 6f 81 aa ed 1b a2 bf
       0.28272059650399356 -0.035369326652215274
000410 09 6b bb c4 03 bb c5 3f 42 71 30 57 6f 43 a5 3f
       0.1697697363477675 0.04153011264154084
000420 c0 8e 2f 30 8e c2 c5 3f dd df f2 5c 4b 1f d0 bf
       0.1699998603136148 -0.25191005780243164
000430 75 62 d5 59 36 54 bc 3f b9 93 36 9a e5 12 a0 3f
       0.11065997784806732 0.03139417178616761
000440 be e5 3c 35 37 c4 c8 bf 39 27 af 08 12 2d b9 bf
       -0.1934880266142453 -0.09834397041336453
000450 0c d5 df f4 da c6 b5 3f 2e ca f0 ba cf 87 c6 bf
       0.0850655410611873 -0.17601963642080548
000460 e7 f9 d2 bd 25 9f a6 3f 2b 5a 3a f8 50 86 72 3f
       0.04418294851483378 0.004522625243814231
000470 e5 69 0d d9 d5 76 5e 3f dc 1a bd 25 5f 96 cc bf
       0.001859387241174398 -0.2233389791747048
000480 1d 4c c0 58 11 66 a7 3f 52 ec c7 69 83 f6 c7 bf
       0.04570059021366311 -0.18721048989377437
000490 d9 2d 44 bc 3f cf c1 bf 84 16 66 aa df 54 d0 3f
       -0.13913723652545576 0.25518027916437114
0004a0 f0 d8 b0 54 93 7c b7 3f 80 7b 19 80 3e 0b ba bf
       0.09174462144514783 -0.10173407199316209
0004b0 8e 8a da a5 30 6d b4 bf 9b a6 14 b1 e9 5c a8 bf
       -0.07979110764658001 -0.047583868852894194
0004c0 e0 33 cd c9 0f 1a 6e bf 61 2e 52 3f 3a 1e c2 bf
       -0.00367453654909021 -0.14154747096869172
0004d0 58 3f 19 50 ff 32 97 bf e6 9a e5 f4 0c 24 c9 3f
       -0.022655476821739157 0.1964126773629779
0004e0 44 b1 ef c0 a6 cd c3 bf 3a fc 2e df b1 fc cd bf
       -0.1547134821006556 -0.23427413365968325
0004f0 ba 5d 3b 91 56 b3 ae bf f9 43 a3 b0 37 b5 d6 3f
       -0.05996199152803734 0.3548106408098302
000500 d1 6f dc f9 f8 94 76 3f 00 dd dc 1a 22 f5 d5 bf
       0.005513165056779416 -0.34308674453082233
000510 33 69 d0 de d9 d5 cb 3f
       0.21746371631236058
